Training settings:
100 epochs
200 batch size
1% validation split




Model: "model"
_________________________________________________________________
 Layer (type)                Output Shape              Param #
=================================================================
 input_1 (InputLayer)        [(None, 28, 28, 1)]       0

 conv2d (Conv2D)             (None, 28, 28, 32)        160

 activation (Activation)     (None, 28, 28, 32)        0

 max_pooling2d (MaxPooling2D  (None, 14, 14, 32)       0
 )

 depthwise_conv2d (Depthwise  (None, 14, 14, 32)       320
 Conv2D)

 activation_1 (Activation)   (None, 14, 14, 32)        0

 max_pooling2d_1 (MaxPooling  (None, 7, 7, 32)         0
 2D)

 depthwise_conv2d_1 (Depthwi  (None, 7, 7, 32)         320
 seConv2D)

 activation_2 (Activation)   (None, 7, 7, 32)          0

 max_pooling2d_2 (MaxPooling  (None, 3, 3, 32)         0
 2D)

 depthwise_conv2d_2 (Depthwi  (None, 3, 3, 32)         320
 seConv2D)

 activation_3 (Activation)   (None, 3, 3, 32)          0

 conv2d_1 (Conv2D)           (None, 3, 3, 8)           264

 activation_4 (Activation)   (None, 3, 3, 8)           0

 flatten (Flatten)           (None, 72)                0

 dense (Dense)               (None, 10)                730

=================================================================
Total params: 2,114
Trainable params: 2,114
Non-trainable params: 0
_________________________________________________________________
Epoch 1/100
297/297 [==============================] - 30s 96ms/step - loss: 0.6628 - accuracy: 0.8076 - val_loss: 0.2246 - val_accuracy: 0.9450
Epoch 2/100
297/297 [==============================] - 29s 96ms/step - loss: 0.1412 - accuracy: 0.9569 - val_loss: 0.1537 - val_accuracy: 0.9717
…
